sr_lstm_model_5h_forcast.pth (torch, 10674 bytes, 5 tensors)

weight_ih_l0 f4 [64, 7]
0	0x3d76b646	0.060232423
1	0x3e93ae7b	0.28844056
2	0x3e7b8b2d	0.2456481
3	0x3e000443	0.12501626
4	0xbdf1aad6	-0.118001625
5	0x3e08039b	0.13282625
6	0xbeaf2588	-0.34208322
7	0x3e9a1214	0.30091918
8	0x3e342614	0.1759265
9	0xbd67cb47	-0.056590345
10	0x3c95c2e8	0.018281415
11	0xbe3ea44f	-0.18617366
12	0xbeab4c4e	-0.33456653
13	0x3d87f059	0.066376396
14	0x3ed6286e	0.4182772
15	0x3b89bd6a	0.004203488
16	0x3d14e63c	0.03635238
17	0x3e5b1efc	0.21398538
18	0x3dd53d90	0.10412133
19	0x3bff9dd3	0.0078007965
20	0xbe772e0d	-0.2413866
21	0xbea72c81	-0.3265114
22	0xbe1bbd6b	-0.15208976
23	0x3e7d0f42	0.24712852
24	0xbc96bce7	-0.018400623
25	0xbd4d3ca8	-0.050106674
26	0xbdac417e	-0.08410929
27	0xbe6591fb	-0.22418968
28	0x3e03af75	0.128599
29	0x3e3e6c56	0.18596014
30	0xbe0ef3e8	-0.1396023
31	0xbe4a8728	-0.1977812
32	0xbe8c1b08	-0.27364373
33	0x3e0a3288	0.13495839
34	0xbe5d886e	-0.21634075
35	0x3d1f8b73	0.03895135
36	0x3e86ca1a	0.26326066
37	0xbc565e60	-0.013084024
38	0xbe6987b9	-0.2280568
39	0x3d94caa9	0.07265217
40	0xbe5fa198	-0.21838987
41	0x3d709509	0.05873588
42	0x3dc4a753	0.09602227
43	0x3e43e6f9	0.19131078
44	0x3d808c48	0.062767565
45	0xbe439498	-0.19099653
46	0x3df96430	0.121773124
47	0xbe586d25	-0.21135385
48	0x3dc2a906	0.09504895
49	0xbe2b15a3	-0.16707473
50	0x3e4b6964	0.19864422
51	0x3e6e4819	0.2326969
52	0xbe7d1c62	-0.24717858
53	0x3bcf87ab	0.0063333116
54	0xbd96d331	-0.073645
55	0xbe826b37	-0.25472423
56	0xbdd17cbe	-0.10228871
57	0x3b4feac4	0.0031725625
58	0x3e293c9a	0.16527024
59	0x3e176956	0.14786276
60	0x3e0b9219	0.1362995
61	0xbcc2ae0c	-0.023764633
62	0xbe23669b	-0.1595711
63	0xbe1bcda1	-0.1521516
64	0xbe15a65f	-0.14614247
65	0x3e01f5a0	0.12691355
66	0x3e4e8f90	0.20171952
67	0xbe212db0	-0.15740085
68	0xbdf8a2d2	-0.121404305
69	0xbe0596a7	-0.1304575
70	0x3ea94b48	0.33065248
71	0x3e256a67	0.1615387
72	0xbe344f85	-0.1760846
73	0x3e0120cd	0.12610169
74	0xbdfd6047	-0.12371879
75	0x3bc5e61b	0.0060393936
76	0x3e49a8f7	0.19693361
77	0xbde5b03b	-0.11215254
78	0x3e48e024	0.19616753
79	0x3de00659	0.10938711
80	0x3e1c4968	0.15262377
81	0x3dc925de	0.09821676
82	0xbc89551f	-0.016764222
83	0x3e7082f7	0.23487459
84	0xbe1c3b15	-0.15256913
85	0x3d8e869b	0.06959268
86	0x3e78764e	0.2426388
87	0xbdd48be8	-0.103782475
88	0x3e7b54c6	0.24544057
89	0xbe4c2dc7	-0.19939338
90	0x3df14280	0.11780262
91	0xbe4eb4c2	-0.20186141
92	0x3e36a225	0.1783529
93	0xbc428884	-0.011873368
94	0x3e5a5170	0.21320128
95	0xbde156f6	-0.110029146
96	0xbd8d641b	-0.06903859
97	0x3e3ca79e	0.18423316
98	0x3e4a5943	0.19760613
99	0x3de36d93	0.11104884
100	0x3e1f6a14	0.1556781
101	0xbde5b77e	-0.11216639
102	0xbd493f1c	-0.04913245
103	0xbe080329	-0.13282456
104	0xbe0338dc	-0.12814659
105	0xbc44b886	-0.012006884
106	0x3cb96620	0.022631705
107	0x3e0bdcba	0.13658419
108	0xbda0a38c	-0.07843694
109	0xbe14dc21	-0.14537098
110	0xbdbb5ca0	-0.09148526
111	0x3dbbc31b	0.09168073
112	0x3e542f3f	0.20721148
113	0x3e2fced7	0.17168747
114	0xbb1cc0d9	-0.0023918657
115	0x3e77dbe8	0.24204981
116	0x3e37ea4f	0.17960475
117	0x3da754f7	0.08170503
118	0xbe053a97	-0.13010632
119	0xbc3285ef	-0.01089619
120	0x3e6a4a04	0.22879797
121	0x3ce4035f	0.027833639
122	0xbe6238d3	-0.22091989
123	0xbd5a38b2	-0.053276725
124	0x3e1040cb	0.14087217
125	0xbdd7ed32	-0.10543288
126	0x3e41aa05	0.18912514
127	0x3e0ce59d	0.13759466
128	0x3e86c2c1	0.2632046
129	0x3e80002e	0.25000137
130	0xbce91b71	-0.028455468
131	0x3db1cbba	0.08681436
132	0xbe5edc97	-0.21763836
133	0xbe854ae3	-0.26033697
134	0x3e4362fb	0.19080727
135	0x3e3da6e1	0.1852069
136	0x3d555d01	0.05209065
137	0x3d504382	0.05084563
138	0x3e0afd9d	0.13573308
139	0x3dd009f1	0.10158146
140	0xbe4483be	-0.1919088
141	0x3d5d71c6	0.05406358
142	0xbdfd53e9	-0.1236952
143	0xbda35444	-0.07975057
144	0xbeb198b7	-0.34686825
145	0x3e03f784	0.12887388
146	0x3db0a8e5	0.08625964
147	0xbe143891	-0.14474703
148	0x3e76dddd	0.24108072
149	0x3d8bc9f9	0.068256326
150	0x3b6c917e	0.0036097462
151	0x3e6f95dd	0.23397012
152	0x3d1ce3d5	0.038303215
153	0xbd28a264	-0.041170493
154	0xbe729960	-0.2369132
155	0x3cd76467	0.026292993
156	0xbdaee514	-0.08539787
157	0xbe2fecb3	-0.17180137
158	0xbe2a3f25	-0.1662565
159	0x3dc50d54	0.09621683
160	0x3e40ca79	0.18827237
161	0x3e2c974c	0.1685459
162	0xbd168822	-0.03675092
163	0xbdb88f69	-0.09011728
164	0x3bb3f635	0.0054919966
165	0xbd057e20	-0.032590985
166	0x3de60df6	0.112331316
167	0x3e8e204b	0.27759013
168	0xbe40cf18	-0.18829
169	0x3e0682d3	0.13135843
170	0xbe144ac7	-0.1448165
171	0xbceefdba	-0.02917372
172	0xbe294390	-0.1652968
173	0x3e0149e8	0.12625849
174	0x3c2c8e06	0.010531908
175	0xbe83f4e2	-0.25772768
176	0x3e0a740f	0.13520835
177	0x3c8ec265	0.017426679
178	0xbe48efe2	-0.19622758
179	0xbd9c0c6a	-0.07619555
180	0x3e432dea	0.19060484
181	0x3e095d41	0.1341448
182	0x3e4aa9ca	0.19791332
183	0xbd2ee95d	-0.04270302
184	0x3d392900	0.045205116
185	0x3bc0cb9c	0.005883647
186	0x3c58aa5a	0.013224209
187	0xbd6704b3	-0.056400966
188	0x3de9389f	0.11387753
189	0x3e620a6d	0.2207429
190	0x3d535e04	0.051603332
191	0x3e1862b7	0.14881407
192	0xbd4e452c	-0.050358936
193	0xbe2df242	-0.16986945
194	0x3e047bf4	0.1293791
195	0xbe4a1ab7	-0.19736753
196	0xbc76cf1c	-0.015064027
197	0xbe6301aa	-0.22168604
198	0x3e660cf7	0.22465883
199	0x3daf0483	0.085457824
200	0xbdf08d54	-0.11745706
201	0x3e57d17f	0.2107601
202	0xbe02d96e	-0.12778255
203	0xbe5ebc68	-0.21751559
204	0x3e073815	0.13204987
205	0x3d51746a	0.05113641
206	0x3c1759af	0.009237691
207	0xbccd6b60	-0.025075614
208	0x3da83a62	0.08214261
209	0xbdb02daf	-0.086024635
210	0xbde654c4	-0.112466365
211	0xbe014a6b	-0.12626044
212	0xbd47b52f	-0.048756775
213	0x3e5f8faa	0.21832147
214	0x3d040255	0.032228786
215	0x3beb745e	0.007185503
216	0x3e463128	0.19354689
217	0x3e1e7070	0.15472579
218	0x3dcf04e2	0.10108353
219	0x3e3ea895	0.18618996
220	0x3ce1d499	0.027567195
221	0x3db8dfd2	0.09027065
222	0xbe2c52bf	-0.1682844
223	0xbe142246	-0.144662
224	0x3eb2b984	0.34907162
225	0xbe4b25ac	-0.1983859
226	0xbb5fd8fa	-0.0034156428
227	0x3d5286cc	0.051398084
228	0xbd6428f0	-0.055703104
229	0xbd99ba60	-0.07506251
230	0xbc07e38e	-0.008293999
231	0xbec38074	-0.3818394
232	0x3dce18cf	0.100633256
233	0x3e85c1a8	0.2612431
234	0x3e04a77d	0.12954517
235	0x3c0d9c54	0.008643229
236	0xbea2b655	-0.31779733
237	0x3dc3a957	0.095537834
238	0x3d99bac3	0.07506325
239	0x3ca8365b	0.020533731
240	0xbcc17c1b	-0.023618748
241	0xbd53e524	-0.051732197
242	0xbdf36fad	-0.11886535
243	0xbde9d48c	-0.11417493
244	0x3c87294b	0.016499182
245	0x3d402647	0.046911504
246	0x3e9b317e	0.30311197
247	0x3e26dc95	0.16295083
248	0x3e02fc89	0.12791647
249	0x3db19b37	0.08672183
250	0xbe59f270	-0.21283889
251	0x3e25639e	0.16151282
252	0xbda5bba7	-0.080924325
253	0x3ebc3105	0.3675615
254	0x3ec56723	0.3855525
255	0xbd65adf9	-0.056074116

weight_hh_l0 f4 [64, 16]
0	0x3e5316b6	0.20614132
1	0x3e00a0a0	0.12561274
2	0xbe8d8de4	-0.27647316
3	0x3e07252b	0.13197772
4	0xbe61acf5	-0.22038634
5	0x3e1e29ad	0.15445586
6	0xbdce7ba2	-0.10082175
7	0xbe1d5ced	-0.1536748
8	0xbe4271bb	-0.18988697
9	0x3e5ce203	0.21570592
10	0x3a496be9	0.00076836214
11	0x3d1feb59	0.039042804
12	0x3b09204d	0.0020923794
13	0x3df9e9b4	0.122027785
14	0xbe0f7da7	-0.14012776
15	0xbd47b307	-0.04875472
16	0x3de2dd37	0.1107735
17	0xbdd65b26	-0.10466604
18	0xbd27a3c0	-0.04092765
19	0x3dc3af23	0.09554889
20	0xbd5f485c	-0.054512367
21	0xbdde7e7e	-0.1086397
22	0xbe983156	-0.2972514
23	0xbe5bfc11	-0.21482874
24	0x3df95d32	0.12175979
25	0xbe2657f9	-0.16244496
26	0x3e19fd0d	0.15037937
27	0xbe42b85b	-0.19015639
28	0x3e6e94c6	0.2329894
29	0x3e43ab1d	0.19108243
30	0x3df8f744	0.12156537
31	0x3e9be36b	0.30446944
32	0x3e068cc3	0.13139634
33	0xbe71d998	-0.23618162
34	0x3eaaa0ae	0.33325714
35	0xbe1fae23	-0.15593772
36	0xbe40983e	-0.18808076
37	0x3d078894	0.033089235
38	0xbe801725	-0.25017658
39	0x3e3bf651	0.18355681
40	0x3e25467d	0.1614017
41	0xbc00daee	-0.007864697
42	0xbdb4cc4b	-0.08828028
43	0xbcef407c	-0.029205553
44	0x3e55bb41	0.20872213
45	0xbde29944	-0.11064389
46	0xbdfff43a	-0.124977544
47	0x3c5af083	0.0133630065
48	0x3de745e1	0.11292625
49	0xbd653cc7	-0.055966165
50	0x3d939a3a	0.07207151
51	0xbccb5eb6	-0.024825435
52	0x3d7979be	0.060907118
53	0xbd672477	-0.05643126
54	0xbe5eb28c	-0.21747798
55	0x3d6a35f9	0.05718038
56	0xbde4f391	-0.11179269
57	0x3e223045	0.15838726
58	0xbdbdcd30	-0.09267652
59	0x3e02b81a	0.12765542
60	0x3d3db815	0.046318132
61	0xbe6d9b04	-0.23203665
62	0xbdfb050f	-0.12256824
63	0xbd6d6e6a	-0.057966627
64	0xbe9f7cd9	-0.3114994
65	0x3dc8b8e5	0.09800891
66	0xbe0890c9	-0.13336481
67	0xbe4dc3cb	-0.2009422
68	0x3cb28f74	0.02179692
69	0x3d9242dc	0.07141659
70	0xbd4256df	-0.047446128
71	0x3e53cd7c	0.20683855
72	0xbe1d784c	-0.15377921
73	0xbe2cf42e	-0.16890022
74	0xbdd0a554	-0.10187784
75	0xbd205770	-0.039145887
76	0x3e1ea6a6	0.15493259
77	0xbd3e2b3a	-0.046427943
78	0x3e0c1066	0.1367813
79	0xbe1a2c68	-0.15056002
80	0xbe38ea0a	-0.18058029
81	0xbe126353	-0.14295702
82	0xbe52c881	-0.20584299
83	0xbd94d7be	-0.07267712
84	0x3e0e2c7c	0.13884157
85	0xbda43d79	-0.080195375
86	0xbe51c4fe	-0.20485303
87	0x3ae2237e	0.0017253009
88	0xbdaa8142	-0.08325435
89	0xbbc1f78f	-0.005919404
90	0xbc169bb2	-0.009192394
91	0xbe9d92e7	-0.3077614
92	0xbdce4c82	-0.100731865
93	0x3e3892e1	0.1802478
94	0x3e3288b4	0.1743496
95	0xbd83d772	-0.06437577
96	0xbeb02d26	-0.34409446
97	0xbebac0b4	-0.36475146
98	0xbe0e3e0c	-0.13890857
99	0xbe5222ed	-0.20521136
100	0xbe3001ca	-0.17188182
101	0x3df9ff5d	0.1220691
102	0xbe4d4428	-0.20045531
103	0x3d677362	0.056506522
104	0xbe8cba94	-0.27486098
105	0xbe096714	-0.13418227
106	0xbddf4ee1	-0.10903717
107	0xbe4e031d	-0.20118375
108	0x3e6242e8	0.22095835
109	0x3e3f32b2	0.18671682
110	0xbe4de2ff	-0.20106123
111	0x3d3f711b	0.046738725
112	0x3d9de80f	0.07710277
113	0xbe49387c	-0.19650453
114	0x3de18297	0.11011236
115	0x3e2ed31a	0.17072716
116	0xbd20fcef	-0.039303716
117	0x3d9fbf2f	0.07800137
118	0x3e2169dc	0.15763038
119	0xbd518e95	-0.051161367
120	0xbe4b9a2d	-0.19883032
121	0x3dffb298	0.12485236
122	0x3e21848d	0.1577322
123	0xbd4d1d8f	-0.050077017
124	0xbe2d53ea	-0.16926542
125	0x3e7a6d95	0.24455865
126	0x3e83e7e2	0.2576285
127	0xbccab825	-0.02474601
128	0x3e19cd4a	0.15019718
129	0xbdd7e461	-0.10541607
130	0xbcf695b7	-0.030100686
131	0xbd654df8	-0.05598256
132	0x3e25452a	0.16139665
133	0xbe8c3193	-0.27381572
134	0xbe96fbd8	-0.29489017
135	0xbe2ecd36	-0.1707047
136	0xbc55950a	-0.013036022
137	0xbc978612	-0.018496547
138	0x3d48189e	0.0488516
139	0xbe94f59d	-0.29093638
140	0x3e8738f8	0.2641065
141	0x3e9107b1	0.2832618
142	0xbe383dfb	-0.17992394
143	0x3e49ceb3	0.19707756
144	0x3df5ec5b	0.12007972
145	0xbe1bb419	-0.1520542
146	0x3d4f3ad0	0.050593197
147	0xbd213374	-0.03935571
148	0x3d7bbb9e	0.061458223
149	0x3e54375b	0.20724241
150	0xbdc55f07	-0.09637266
151	0xbd46bd55	-0.048520405
152	0xbe7bf700	-0.24605942
153	0xbda29d14	-0.079401165
154	0x3e57eec7	0.2108718
155	0x3d9ba8c0	0.07600546
156	0x3d40ec53	0.047100376
157	0x3e3e3595	0.18575127
158	0xbe1d7d29	-0.15379776
159	0xbe398a65	-0.181192
160	0xbe971383	-0.29507074
161	0x3d2ad1b9	0.041703913
162	0x3e15f751	0.14645125
163	0xbd0fb133	-0.0350811
164	0xbd55f2ec	-0.05223362
165	0x3e842e45	0.2581655
166	0xbd29b3d9	-0.04143128
167	0x3e31ab9c	0.1735062
168	0xbe47eae7	-0.19523202
169	0xbe155fbb	-0.145873
170	0xbd1de19f	-0.038545247
171	0xbe44bd43	-0.19212823
172	0x3e8fbdce	0.28074497
173	0x3c0cca7d	0.008593199
174	0xbc9f659c	-0.01945763
175	0x3c90acee	0.017660584
176	0xbeb829f3	-0.35969505
177	0x3ca149ea	0.019688565
178	0x3e29b74e	0.16573831
179	0x3e8ada46	0.27119654
180	0xbe0757b4	-0.1321705
181	0xbe422591	-0.18959643
182	0x3e0bf425	0.13667352
183	0xbe890354	-0.26760352
184	0xbdb9888a	-0.09059246
185	0xbe38bc9a	-0.18040696
186	0x39c0fb5e	0.00036808377
187	0x3e6cd6e3	0.23128848
188	0x3e47be3c	0.19506162
189	0xbe58f192	-0.21185902
190	0xbd963d0a	-0.07335861
191	0x3e4e9b27	0.20176373
192	0x3e39a241	0.18128301
193	0xbe602ce6	-0.21892127
194	0xbe8d9c3d	-0.27658263
195	0x3dada0ab	0.084779106
196	0x3dfd7575	0.12375919
197	0xbe75af74	-0.23992711
198	0x3e0c2f39	0.13689889
199	0xbe5850a7	-0.21124516
200	0xbc226e43	-0.009913984
201	0x3e629b97	0.22129665
202	0x3e5f7d56	0.21825156
203	0xbdcdb161	-0.10043598
204	0x3e618cff	0.22026442
205	0x3d45cf50	0.04829341
206	0x3e0d1f2b	0.13781421
207	0x3dbe6021	0.09295679
208	0x3d222249	0.039583478
209	0xbd3333a3	-0.043750416
210	0x3e415e14	0.18883544
211	0xbe027f30	-0.1274383
212	0x3d86631d	0.06561873
213	0xbc54813f	-0.012970268
214	0xbd9264fd	-0.07148168
215	0x3d4af379	0.0495486
216	0xbd8a51d3	-0.06753888
217	0x3d20b83a	0.039238192
218	0xbe140824	-0.1445623
219	0x3e64dbc1	0.22349454
220	0xbdd68423	-0.10474422
221	0x3dde86dd	0.10865567
222	0x3ea109e1	0.3145285
223	0x3e49b465	0.19697721
224	0xbe74ef70	-0.23919463
225	0x3d948ecf	0.07253801
226	0x3e758f37	0.23980413
227	0xbe2b50eb	-0.16730087
228	0x3d66046e	0.05615657
229	0x3e0e5a3f	0.13901614
230	0xbdf646bf	-0.120252125
231	0xbbeaec83	-0.0071693077
232	0xbe68aaf1	-0.22721459
233	0x3e4061e1	0.18787338
234	0x3ca3ce06	0.0199957
235	0xbd5a39ec	-0.053277895
236	0x3dc9851f	0.09839844
237	0x3c9a4ad3	0.018834507
238	0x3ded2966	0.11580162
239	0x3dd5c74e	0.10438405
240	0xbd413d2a	-0.04717747
241	0xbd9a8c88	-0.075463355
242	0xbbaff03f	-0.0053692157
243	0xbe41714b	-0.18890874
244	0x3e5302bb	0.2060651
245	0x3e09f09e	0.13470694
246	0x3dcd813f	0.10034417
247	0xbe891488	-0.26773477
248	0xbdd019c4	-0.101611644
249	0xbdc4d7e5	-0.09611491
250	0x3d89138e	0.06693183
251	0x3db70310	0.08936131
252	0xbd1f56b1	-0.038901035
253	0xbd57a76d	-0.052649904
254	0xbdd74d83	-0.10512831
255	0x3e909a78	0.2824285

bias_ih_l0 f4 [64]
0	0xbd249cdf	-0.040188666
1	0x3e2597a5	0.16171129
2	0xbe68385b	-0.22677748
3	0xbd86bb3a	-0.065786794
4	0x3ec63f31	0.38720086
5	0x3e85aa04	0.26106274
6	0x3e7a81c6	0.24463567
7	0x3e67c107	0.22632228
8	0x3e9d3fea	0.30712825
9	0x3eb545e8	0.35404897
10	0xbc8a1d49	-0.016859667
11	0x3e3778d3	0.17917185
12	0xbd686ff8	-0.056747407
13	0x3d62b9eb	0.055353086
14	0x3ed56c46	0.4168417
15	0x3da155fb	0.078777276
16	0xbe18c024	-0.14917046
17	0x3cc5ae3c	0.024130933
18	0x3e7c4aad	0.24637862
19	0xbe17889d	-0.14798208
20	0x3e38ac96	0.18034586
21	0xbda2677b	-0.079298936
22	0xbbd3c78a	-0.006462996
23	0xbb936e84	-0.0044992585
24	0x3e5285fa	0.2055892
25	0x3dbb7d75	0.091547884
26	0x3de73a86	0.11290459
27	0x3e83af60	0.25719738
28	0x3e284add	0.16434808
29	0xbde39caa	-0.11113866
30	0xbe1a6f82	-0.150816
31	0x3d66d8ea	0.05635921
32	0xbdebd5b7	-0.11515372
33	0xbe061cb5	-0.13096888
34	0x3d93d5d7	0.07218521
35	0x3e34d72d	0.17660208
36	0x3dd5adf4	0.104335696
37	0x3d1f9943	0.03896452
38	0xbbc1a64f	-0.005909718
39	0xbe76e918	-0.24112356
40	0xbe7ea1a5	-0.2486635
41	0xbe5a6c26	-0.21330318
42	0x3bf2c951	0.0074092527
43	0x3d96115b	0.07327529
44	0xbd2843b9	-0.04108021
45	0x3e3f13e4	0.18659931
46	0xbd177315	-0.036974985
47	0xbe6cc6b6	-0.23122677
48	0x3e84b982	0.2592278
49	0x3d81030d	0.0629941
50	0x3db14b22	0.086569086
51	0x3d3393ce	0.04384213
52	0x3e39acb8	0.18132293
53	0x3e935712	0.28777367
54	0x3ec4ae2b	0.3841413
55	0x3e59f1c0	0.21283627
56	0x3ecfe87d	0.40607062
57	0x3e8a1dd8	0.26975894
58	0x3d94f705	0.07273678
59	0xbcd7fb97	-0.026365085
60	0xbbcb815b	-0.0062104887
61	0x3e07d864	0.1326614
62	0x3eb7246c	0.35769975
63	0x3ed26d28	0.41098905

bias_hh_l0 f4 [64]
0	0xbd993074	-0.07479945
1	0xbdaf8035	-0.085693754
2	0xbdbb56d7	-0.09147423
3	0x3d82929c	0.0637562
4	0x3ead4ea5	0.33849064
5	0x3e9978d2	0.2997499
6	0x3f0695ae	0.52572143
7	0x3e3d6ca5	0.18498476
8	0x3dc3eb87	0.09566408
9	0x3e4a93d0	0.19782948
10	0xbd4d0084	-0.05004932
11	0x3e43d2fd	0.19123454
12	0x3dd08078	0.101807535
13	0x3e576555	0.21034749
14	0x3bd76c6c	0.006574204
15	0x3eb6f4c1	0.35733607
16	0xbc294be3	-0.010333034
17	0x3e381c0e	0.17979452
18	0x3e011a1f	0.1260762
19	0xbccf2da4	-0.025290318
20	0x3eb1a854	0.34698737
21	0xbe36ec24	-0.17863518
22	0x3e200e5a	0.15630475
23	0x3e1c4227	0.1525961
24	0xbd214bf2	-0.039379068
25	0xbd50c035	-0.050964553
26	0x3e348adf	0.176311
27	0x3e29c0f6	0.16577515
28	0xbd208f93	-0.039199423
29	0x3bf2e3a7	0.007412392
30	0x3aa7c66f	0.0012800227
31	0xbd2edb20	-0.042689443
32	0xbe4c50a7	-0.19952641
33	0x3cac0bb5	0.021001676
34	0xbe57b66b	-0.2106568
35	0xbddd58ad	-0.10807929
36	0xbc14580b	-0.009054194
37	0xbd47a2c1	-0.0487392
38	0xbcb953f5	-0.022623042
39	0xbc824ce3	-0.015905803
40	0xbe0f430a	-0.13990417
41	0x3de27b69	0.11058695
42	0x3e1c0f8e	0.15240309
43	0x3c847388	0.01616837
44	0x3e647f46	0.22314176
45	0xbe59bf60	-0.2126441
46	0xbd4f9785	-0.05068161
47	0x3e4966fe	0.19668195
48	0x3ed7ee62	0.4217406
49	0x3ea839e4	0.32856667
50	0xb8b23dda	-8.499222e-05
51	0x3ed252b6	0.41078728
52	0x3ec54249	0.38527134
53	0x3da809a6	0.08204965
54	0x3e52ca1f	0.20584916
55	0x3ec9a2b7	0.39381954
56	0x3daf53b0	0.08560884
57	0x3ec19ce7	0.3781502
58	0xbd7d060c	-0.061773345
59	0xbd6cfb44	-0.057856813
60	0x3dae49d9	0.08510179
61	0x3e25bd66	0.16185531
62	0x3e467a13	0.19382505
63	0x3e5447ef	0.20730565

weight f4 [1, 16]
0	0xbe4f5eb5	-0.20250972
1	0x3e7eb867	0.24875031
2	0x3e6bedde	0.23039958
3	0x3eacdfd7	0.33764526
4	0x3eb3cf1e	0.35118955
5	0x3ea73de1	0.32664397
6	0x3e852284	0.26002896
7	0xbeba3eb8	-0.36375976
8	0xbee6c23c	-0.45070064
9	0xbefb084d	-0.4902977
10	0xbe73fa4a	-0.23825946
11	0xbe9bd247	-0.30433866
12	0x3e73ec40	0.23820591
13	0x3ea25bce	0.31710666
14	0x3ed5dfa8	0.417722
15	0x3ede5af6	0.43428773
